ultasonic_flowClassifyModel.tflite (tflite, 4840 bytes, 4 tensors)

sequential/dense/MatMul i1 [24, 27] scale=0.010790529 zero_point=0
00000000: 19e2 10fc f4f9 e402 f2f8 08b8 edd5 e50d
00000010: d532 e21f 3e22 1514 24f3 e8d7 0ac4 ecfe
00000020: eef5 eb1c 0821 9c11 03f4 45e6 327f dce9
00000030: 00e6 fcea fefc e2f7 ebe0 dafa fa41 2c4b
00000040: 0e13 1014 f22e 5d4d 56c7 edf8 e701 f023
00000050: 1f1c 27f9 e6d3 e9bd edd3 efd9 eff9 04fa
00000060: e9e9 db1f fc10 1f10 f904 15f1 3210 2509
00000070: 15f1 30f1 e8e2 1c8c 1a0f 101c edfe e3e8
00000080: cf11 e705 f827 37fb e413 e9e9 00b2 f5ff
00000090: fa20 da0b f4fe f309 f2ca 200c 0818 1819
000000a0: 2301 f8f3 2f0e 17f3 0c3e 5b55 07d3 e9d5
000000b0: e815 2339 1615 f807 e607 dcfa e3fb 0022
000000c0: 07fb e823 fd0a fad1 cafa 1710 1d1b 2005
000000d0: f9c9 d50d 01f3 d0e8 100f f508 efed 170c
000000e0: e7ee ed0c 692e 042d 1d08 0335 3505 2a07
000000f0: 1b09 e60d 3908 14f1 0601 fafa d12f d7df
0.26976323 -0.32371587 0.17264846 -0.043162115 -0.12948635 -0.0755337 -0.3021348 0.021581057
-0.1510674 -0.08632423 0.08632423 -0.77691805 -0.20502004 -0.46399274 -0.29134429 0.14027688
-0.46399274 0.53952646 -0.32371587 0.3345064 0.6690128 0.36687797 0.22660111 0.21581057
0.38845903 -0.14027688 -0.2589727 -0.4424117 0.10790528 -0.64743173 -0.21581057 -0.021581057
-0.19422951 -0.11869582 -0.22660111 0.3021348 0.08632423 0.35608745 -1.0790529 0.18343899
0.032371588 -0.12948635 0.7445465 -0.28055376 0.53952646 1.3703971 -0.38845903 -0.24818216
0.0 -0.28055376 -0.043162115 -0.23739164 -0.021581057 -0.043162115 -0.32371587 -0.09711476
-0.22660111 -0.34529692 -0.41004008 -0.064743176 -0.064743176 0.70138437 0.47478327 0.80928963
0.1510674 0.20502004 0.17264846 0.21581057 -0.1510674 0.49636433 1.0035192 0.8308707
0.9279855 -0.61506015 -0.20502004 -0.08632423 -0.26976323 0.010790529 -0.17264846 0.3776685
0.3345064 0.3021348 0.4208306 -0.0755337 -0.28055376 -0.4855738 -0.24818216 -0.7229654
-0.20502004 -0.4855738 -0.18343899 -0.4208306 -0.18343899 -0.0755337 0.043162115 -0.064743176
-0.24818216 -0.24818216 -0.39924955 0.3345064 -0.043162115 0.17264846 0.3345064 0.17264846
-0.0755337 0.043162115 0.22660111 -0.16185793 0.53952646 0.17264846 0.39924955 0.09711476
0.22660111 -0.16185793 0.5179454 -0.16185793 -0.2589727 -0.32371587 0.3021348 -1.2517014
0.28055376 0.16185793 0.17264846 0.3021348 -0.20502004 -0.021581057 -0.31292534 -0.2589727
-0.52873594 0.18343899 -0.26976323 0.05395264 -0.08632423 0.4208306 0.5934791 -0.05395264
-0.3021348 0.20502004 -0.24818216 -0.24818216 0.0 -0.8416612 -0.11869582 -0.010790529
-0.064743176 0.34529692 -0.41004008 0.11869582 -0.12948635 -0.021581057 -0.14027688 0.09711476
-0.1510674 -0.58268857 0.34529692 0.12948635 0.08632423 0.2589727 0.2589727 0.26976323
0.3776685 0.010790529 -0.08632423 -0.14027688 0.5071548 0.1510674 0.24818216 -0.14027688
0.12948635 0.6690128 0.9819381 0.91719496 0.0755337 -0.4855738 -0.24818216 -0.46399274
-0.2589727 0.22660111 0.3776685 0.61506015 0.23739164 0.22660111 -0.08632423 0.0755337
-0.28055376 0.0755337 -0.38845903 -0.064743176 -0.31292534 -0.05395264 0.0 0.36687797
0.0755337 -0.05395264 -0.2589727 0.3776685 -0.032371588 0.10790528 -0.064743176 -0.5071548
-0.58268857 -0.064743176 0.24818216 0.17264846 0.31292534 0.29134429 0.34529692 0.05395264
-0.0755337 -0.5934791 -0.46399274 0.14027688 0.010790529 -0.14027688 -0.5179454 -0.2589727
0.17264846 0.16185793 -0.11869582 0.08632423 -0.18343899 -0.20502004 0.24818216 0.12948635
-0.26976323 -0.19422951 -0.20502004 0.12948635 1.1330055 0.49636433 0.043162115 0.4855738
0.31292534 0.08632423 0.032371588 0.57189804 0.57189804 0.05395264 0.45320222 0.0755337
0.29134429 0.09711476 -0.28055376 0.14027688 0.61506015 0.08632423 0.21581057 -0.16185793
0.064743176 0.010790529 -0.064743176 -0.064743176 -0.5071548 0.5071548 -0.4424117 -0.35608745

sequential/dense_1/MatMul i1 [18, 24] scale=0.013040028 zero_point=0
00000000: c7b1 2301 12fb 2cfb f736 17dd 2143 f109
00000010: f4e0 1bf3 0218 fc12 0f36 e7e3 1be9 1118
00000020: f7ec fc02 ed13 0d0c 00f2 10d4 14fd eceb
00000030: f16d f709 20f2 0412 fcc3 073d e7d2 1dfa
00000040: 101d f0d1 e3dd fdad 1713 eb1e 270d fff2
00000050: 0708 1624 ebd9 f61d ef2a 0ffe 2413 eb20
00000060: 00de ffeb f61a 1dfb ff14 0005 f525 ee16
00000070: 05f0 1dfb 03fc ef16 03e4 110c 04cc 3a33
00000080: e015 e408 fdc6 dc08 0a3a 190a eafb d708
00000090: b5c4 2e3a a420 09c1 23e6 dadd 4b10 03c9
000000a0: 051e 0fd1 f447 f1c5 9e81 53e1 08e3 33f0
000000b0: ef0a 1dbd 1130 ebf4 08e5 1e1c ee11 f039
000000c0: ec12 15f6 0c1e f213 1f12 1914 f70d 1cec
000000d0: 1813 060c 0bee 01f3 0c37 0df7 0b0f e509
000000e0: f3ef 020f 0404 d611 08fa e3ec 0eff fbf3
000000f0: ea13 14f3 e4f4 1ee4 09fb eaf1 0df7 1833
-0.74328154 -1.0301622 0.45640096 0.013040028 0.2347205 -0.065200135 0.5737612 -0.065200135
-0.11736025 0.70416147 0.29992065 -0.45640096 0.43032092 0.87368184 -0.19560042 0.11736025
-0.15648033 -0.41728088 0.35208073 -0.16952036 0.026080055 0.31296065 -0.05216011 0.2347205
0.19560042 0.70416147 -0.3260007 -0.3781608 0.35208073 -0.29992065 0.22168046 0.31296065
-0.11736025 -0.26080054 -0.05216011 0.026080055 -0.24776052 0.24776052 0.16952036 0.15648033
0.0 -0.18256038 0.20864044 -0.5737612 0.26080054 -0.03912008 -0.26080054 -0.27384058
-0.19560042 1.421363 -0.11736025 0.11736025 0.41728088 -0.18256038 0.05216011 0.2347205
-0.05216011 -0.7954417 0.09128019 0.7954417 -0.3260007 -0.5998413 0.3781608 -0.07824016
0.20864044 0.3781608 -0.20864044 -0.6128813 -0.3781608 -0.45640096 -0.03912008 -1.0823222
0.29992065 0.24776052 -0.27384058 0.39120084 0.5085611 0.16952036 -0.013040028 -0.18256038
0.09128019 0.10432022 0.2868806 0.469441 -0.27384058 -0.5085611 -0.13040027 0.3781608
-0.22168046 0.54768115 0.19560042 -0.026080055 0.469441 0.24776052 -0.27384058 0.41728088
0.0 -0.44336092 -0.013040028 -0.27384058 -0.13040027 0.33904073 0.3781608 -0.065200135
-0.013040028 0.26080054 0.0 0.065200135 -0.1434403 0.48248103 -0.2347205 0.2868806
0.065200135 -0.20864044 0.3781608 -0.065200135 0.03912008 -0.05216011 -0.22168046 0.2868806
0.03912008 -0.36512077 0.22168046 0.15648033 0.05216011 -0.67808145 0.7563216 0.6650414
-0.41728088 0.27384058 -0.36512077 0.10432022 -0.03912008 -0.7563216 -0.469441 0.10432022
0.13040027 0.7563216 0.3260007 0.13040027 -0.2868806 -0.065200135 -0.53464115 0.10432022
-0.9780021 -0.7824017 0.5998413 0.7563216 -1.1996826 0.41728088 0.11736025 -0.82152176
0.45640096 -0.33904073 -0.49552104 -0.45640096 0.9780021 0.20864044 0.03912008 -0.71720153
0.065200135 0.39120084 0.19560042 -0.6128813 -0.15648033 0.925842 -0.19560042 -0.7693616
-1.2779227 -1.6560835 1.0823222 -0.40424085 0.10432022 -0.3781608 0.6650414 -0.20864044
-0.22168046 0.13040027 0.3781608 -0.87368184 0.22168046 0.6259213 -0.27384058 -0.15648033
0.10432022 -0.35208073 0.39120084 0.36512077 -0.2347205 0.22168046 -0.20864044 0.74328154
-0.26080054 0.2347205 0.27384058 -0.13040027 0.15648033 0.39120084 -0.18256038 0.24776052
0.40424085 0.2347205 0.3260007 0.26080054 -0.11736025 0.16952036 0.36512077 -0.26080054
0.31296065 0.24776052 0.07824016 0.15648033 0.1434403 -0.2347205 0.013040028 -0.16952036
0.15648033 0.71720153 0.16952036 -0.11736025 0.1434403 0.19560042 -0.35208073 0.11736025
-0.16952036 -0.22168046 0.026080055 0.19560042 0.05216011 0.05216011 -0.54768115 0.22168046
0.10432022 -0.07824016 -0.3781608 -0.26080054 0.18256038 -0.013040028 -0.065200135 -0.16952036
-0.2868806 0.24776052 0.26080054 -0.16952036 -0.36512077 -0.15648033 0.39120084 -0.36512077
0.11736025 -0.065200135 -0.2868806 -0.19560042 0.16952036 -0.11736025 0.31296065 0.6650414

sequential/dense_2/MatMul i1 [12, 18] scale=0.014006233 zero_point=0
00000000: 2def f311 f081 747a 2428 17dc f7f2 160e
00000010: 13ad f2fc 0f18 06f9 51dc 1103 0f22 ffaa
00000020: 1803 fb1f 291f 0720 1c05 f507 22eb e905
00000030: f8e0 ef27 13fd ec16 53d0 0e41 e7cf 0fd2
00000040: fd45 ef69 0310 f1ef e1e7 17f9 f938 c9d6
00000050: 15f2 1407 0f21 f5dd e720 d621 3e11 ef42
00000060: b1bb 20ec 1935 20f2 1304 ec06 fb01 c0fd
00000070: 17cc 7935 0100 0205 1709 1c15 e3f8 ea21
00000080: 2713 f43d acf7 1404 e02d 1127 f7e1 df24
00000090: 231c 06e5 e2ea d4ed 0e1a 1a1a 0d7d 081b
000000a0: f003 11fc 9fe4 15ce 0f30 fe08 14df 1326
000000b0: e420 15e7 d01a 2400 124e df9d f9f3 1216
000000c0: 16f9 1e15 e23d de0d f706 f51b 090c efe9
000000d0: 0cec 05f4 def8 ffe2
0.6302805 -0.23810595 -0.18208103 0.23810595 -0.22409973 -1.7787915 1.624723 1.7087604
0.50422436 0.5602493 0.32214335 -0.50422436 -0.12605609 -0.19608726 0.30813712 0.19608726
0.26611844 -1.1625173 -0.19608726 -0.05602493 0.2100935 0.33614957 0.08403739 -0.09804363
1.1345049 -0.50422436 0.23810595 0.042018697 0.2100935 0.4762119 -0.014006233 -1.2045361
0.33614957 0.042018697 -0.070031166 0.43419322 0.5742555 0.43419322 0.09804363 0.44819945
0.3921745 0.070031166 -0.15406856 0.09804363 0.4762119 -0.2941309 -0.32214335 0.070031166
-0.11204986 -0.44819945 -0.23810595 0.5462431 0.26611844 -0.042018697 -0.28012466 0.30813712
1.1625173 -0.67229915 0.19608726 0.91040516 -0.35015583 -0.6863054 0.2100935 -0.6442867
-0.042018697 0.96643007 -0.23810595 1.4706545 0.042018697 0.22409973 -0.2100935 -0.23810595
-0.43419322 -0.35015583 0.32214335 -0.09804363 -0.09804363 0.784349 -0.7703428 -0.5882618
0.2941309 -0.19608726 0.28012466 0.09804363 0.2100935 0.46220568 -0.15406856 -0.49021816
-0.35015583 0.44819945 -0.5882618 0.46220568 0.86838645 0.23810595 -0.23810595 0.92441136
-1.1064924 -0.96643007 0.44819945 -0.28012466 0.35015583 0.7423303 0.44819945 -0.19608726
0.26611844 0.05602493 -0.28012466 0.08403739 -0.070031166 0.014006233 -0.8963989 -0.042018697
0.32214335 -0.7283241 1.6947541 0.7423303 0.014006233 0.0 0.028012466 0.070031166
0.32214335 0.12605609 0.3921745 0.2941309 -0.40618074 -0.11204986 -0.30813712 0.46220568
0.5462431 0.26611844 -0.16807479 0.8543802 -1.1765236 -0.12605609 0.28012466 0.05602493
-0.44819945 0.6302805 0.23810595 0.5462431 -0.12605609 -0.43419322 -0.46220568 0.50422436
0.49021816 0.3921745 0.08403739 -0.37816828 -0.420187 -0.30813712 -0.61627424 -0.26611844
0.19608726 0.36416206 0.36416206 0.36416206 0.18208103 1.7507792 0.11204986 0.37816828
-0.22409973 0.042018697 0.23810595 -0.05602493 -1.3586046 -0.3921745 0.2941309 -0.70031166
0.2100935 0.67229915 -0.028012466 0.11204986 0.28012466 -0.46220568 0.26611844 0.5322369
-0.3921745 0.44819945 0.2941309 -0.35015583 -0.67229915 0.36416206 0.50422436 0.0
0.25211218 1.0924861 -0.46220568 -1.3866171 -0.09804363 -0.18208103 0.25211218 0.30813712
0.30813712 -0.09804363 0.420187 0.2941309 -0.420187 0.8543802 -0.4762119 0.18208103
-0.12605609 0.08403739 -0.15406856 0.37816828 0.12605609 0.16807479 -0.23810595 -0.32214335
0.16807479 -0.28012466 0.070031166 -0.16807479 -0.4762119 -0.11204986 -0.014006233 -0.420187

sequential/dense_3/MatMul i1 [4, 12] scale=0.012076756 zero_point=0
00000000: 2ef3 f419 b8c6 36d2 0d3f b22e 133b dd81
00000010: bc1a 59e1 9ecc 3f23 b5f2 de42 1921 ba29
00000020: 11e9 051a 2203 15a9 f205 fb0a e00a dafa
0.5555308 -0.15699783 -0.14492106 0.3019189 -0.86952645 -0.70045185 0.65214485 -0.5555308
0.15699783 0.76083565 -0.941987 0.5555308 0.22945836 0.7125286 -0.42268646 -1.533748
-0.8212194 0.31399566 1.0748312 -0.37437943 -1.1835221 -0.6279913 0.76083565 0.42268646
-0.9057567 -0.16907458 -0.4106097 0.7970659 0.3019189 0.39853296 -0.8453729 0.495147
0.20530485 -0.2777654 0.06038378 0.31399566 0.4106097 0.036230266 0.25361186 -1.0506778
-0.16907458 0.06038378 -0.06038378 0.12076756 -0.3864562 0.12076756 -0.45891672 -0.07246053
